…
ummary import summary\n","use_cuda = torch.cuda.is_available()\n","device = torch.device(\"cuda\" if use_cuda else \"cpu\")\n","model = Net().to(device)\n","summary(model, input_size=(3, 32, 32))"],"execution_count":null,"outputs":[{"output_type":"stream","text":["Requirement already satisfied: torchsummary in /usr/local/lib/python3.6/dist-packages (1.5.1)\n","----------------------------------------------------------------\n","        Layer (type)               Output Shape         Param #\n","================================================================\n","            Conv2d-1           [-1, 10, 32, 32]             270\n","       BatchNorm2d-2           [-1, 10, 32, 32]              20\n","              ReLU-3           [-1, 10, 32, 32]               0\n","           Dropout-4           [-1, 10, 32, 32]               0\n","            Conv2d-5           [-1, 16, 32, 32]           1,872\n","       BatchNorm2d-6           [-1, 16, 32, 32]              32\n","              ReLU-7           [-1, 16, 32, 32]               0\n","           Dropout-8           [-1, 16, 32, 32]               0\n","         MaxPool2d-9           [-1, 29, 16, 16]               0\n","           Conv2d-10           [-1, 32, 16, 16]           8,352\n","      BatchNorm2d-11           [-1, 32, 16, 16]              64\n","             ReLU-12           [-1, 32, 16, 16]               0\n","          Dropout-13           [-1, 32, 16, 16]               0\n","           Conv2d-14           [-1, 64, 16, 16]          35,136\n","      BatchNorm2d-15           [-1, 64, 16, 16]             128\n","             ReLU-16           [-1, 64, 16, 16]               0\n","          Dropout-17           [-1, 64, 16, 16]               0\n","           Conv2d-18          [-1, 128, 16, 16]         144,000\n","      BatchNorm2d-19          [-1, 128, 16, 16]             256\n","             ReLU-20          [-1, 128, 16, 16]               0\n","          Dropout-21          [-1, 128, 16, 16]               0\n","        MaxPool2d-22            [-1, 224, 8, 8]               0\n","           Conv2d-23            [-1, 256, 8, 8]         516,096\n","      BatchNorm2d-24            [-1, 256, 8, 8]             512\n","             ReLU-25            [-1, 256, 8, 8]               0\n","          Dropout-26            [-1, 256, 8, 8]               0\n","           Conv2d-27            [-1, 512, 8, 8]       2,211,840\n","      BatchNorm2d-28            [-1, 512, 8, 8]           1,024\n","             ReLU-29            [-1, 512, 8, 8]               0\n","          Dropout-30            [-1, 512, 8, 8]               0\n","           Conv2d-31           [-1, 1024, 8, 8]       9,142,272\n","      BatchNorm2d-32           [-1, 1024, 8, 8]           2,048\n","             ReLU-33           [-1, 1024, 8, 8]               0\n","          Dropout-34           [-1, 1024, 8, 8]               0\n","        AvgPool2d-35           [-1, 1024, 1, 1]               0\n","           Linear-36                   [-1, 10]          10,250\n","================================================================\n","Total params: 12,074,172\n","Trainable params: 12,074,172\n","Non-trainable params: 0\n","----------------------------------------------------------------\n","Input size (MB): 0.01\n","Forward/backward pass size (MB): 6.24\n","Params size (MB): 46.06\n","Estimated Total Size (MB): 52.31\n","----------------------------------
…
