…
,"source":["from torchsummary import summary\n","use_cuda = torch.cuda.is_available()\n","device = torch.device(\"cuda\" if use_cuda else \"cpu\")\n","print(device)\n","# model = customModel.Net().to(device)\n","model = vs_net.Net1().to(device)\n","summary(model, input_size=(3, 32, 32))"],"execution_count":9,"outputs":[{"output_type":"stream","text":["cuda\n","----------------------------------------------------------------\n","        Layer (type)               Output Shape         Param #\n","================================================================\n","            Conv2d-1           [-1, 16, 32, 32]             448\n","       BatchNorm2d-2           [-1, 16, 32, 32]              32\n","              ReLU-3           [-1, 16, 32, 32]               0\n","           Dropout-4           [-1, 16, 32, 32]               0\n","            Conv2d-5           [-1, 32, 32, 32]           4,640\n","       BatchNorm2d-6           [-1, 32, 32, 32]              64\n","              ReLU-7           [-1, 32, 32, 32]               0\n","           Dropout-8           [-1, 32, 32, 32]               0\n","         MaxPool2d-9           [-1, 32, 16, 16]               0\n","           Conv2d-10           [-1, 64, 16, 16]          18,496\n","      BatchNorm2d-11           [-1, 64, 16, 16]             128\n","             ReLU-12           [-1, 64, 16, 16]               0\n","          Dropout-13           [-1, 64, 16, 16]               0\n","           Conv2d-14          [-1, 128, 14, 14]          73,856\n","      BatchNorm2d-15          [-1, 128, 14, 14]             256\n","             ReLU-16          [-1, 128, 14, 14]               0\n","          Dropout-17          [-1, 128, 14, 14]               0\n","        MaxPool2d-18            [-1, 128, 7, 7]               0\n","           Conv2d-19             [-1, 64, 7, 7]           8,256\n","      BatchNorm2d-20             [-1, 64, 7, 7]             128\n","             ReLU-21             [-1, 64, 7, 7]               0\n","           Conv2d-22            [-1, 128, 7, 7]          73,856\n","      BatchNorm2d-23            [-1, 128, 7, 7]             256\n","             ReLU-24            [-1, 128, 7, 7]               0\n","          Dropout-25            [-1, 128, 7, 7]               0\n","           Conv2d-26            [-1, 256, 7, 7]         295,168\n","      BatchNorm2d-27            [-1, 256, 7, 7]             512\n","             ReLU-28            [-1, 256, 7, 7]               0\n","          Dropout-29            [-1, 256, 7, 7]               0\n","        MaxPool2d-30            [-1, 256, 3, 3]               0\n","           Conv2d-31             [-1, 64, 3, 3]          16,448\n","      BatchNorm2d-32             [-1, 64, 3, 3]             128\n","             ReLU-33             [-1, 64, 3, 3]               0\n","           Conv2d-34            [-1, 128, 3, 3]          73,856\n","      BatchNorm2d-35            [-1, 128, 3, 3]             256\n","             ReLU-36            [-1, 128, 3, 3]               0\n","          Dropout-37            [-1, 128, 3, 3]               0\n","           Conv2d-38            [-1, 128, 3, 3]           1,280\n","           Conv2d-39            [-1, 256, 3, 3]          33,024\n","      BatchNorm2d-40            [-1, 256, 3, 3]             512\n","             ReLU-41            [-1, 256, 3, 3]               0\n","          Dropout-42            [-1, 256, 3, 3]               0\n","           Conv2d-43             [-1, 10, 3, 3]           2,570\n","      BatchNorm2d-44             [-1, 10, 3, 3]              20\n","             ReLU-45             [-1, 10, 3, 3]               0\n","        AvgPool2d-46             [-1, 10, 1, 1]               0\n","================================================================\n","Total params: 604,190\n","Trainable params: 604,190\n","Non-trainable params: 0\n","----------------------------------------------------------------\n","Input size (MB): 0.01\n","Forward/backward pass size (MB): 3.67\n","Params size (MB): 2.30\n","Estimated Total Size (MB): 5.99\n","------------------------------------------
…
